2021-03-14 12:16:33,985 [INFO]: Transformer(
  (encoder): Encoder(
    (word_embeddings): WordEmbeddings(41694, 256)
    (pe): PositionEncoder(
      (dropout): Dropout(p=0.1, inplace=False)
    )
    (layers): ModuleList(
      (0): EncoderLayer(
        (attention): MultiHeadAttentionLayer(
          (fc_q): Linear(in_features=256, out_features=256, bias=True)
          (fc_k): Linear(in_features=256, out_features=256, bias=True)
          (fc_v): Linear(in_features=256, out_features=256, bias=True)
          (fc_o): Linear(in_features=256, out_features=256, bias=True)
          (dropout): Dropout(p=0.1, inplace=False)
        )
        (attention_layer_norm): LayerNorm((256,), eps=1e-05, elementwise_affine=True)
        (ff_layer_norm): LayerNorm((256,), eps=1e-05, elementwise_affine=True)
        (positionwise_feedforward): PositionwiseFeedforwardLayer(
          (fc_1): Linear(in_features=256, out_features=512, bias=True)
          (fc_2): Linear(in_features=512, out_features=256, bias=True)
          (dropout): Dropout(p=0.1, inplace=False)
        )
        (attention_dropout): Dropout(p=0.1, inplace=False)
        (ff_dropout): Dropout(p=0.1, inplace=False)
      )
      (1): EncoderLayer(
        (attention): MultiHeadAttentionLayer(
          (fc_q): Linear(in_features=256, out_features=256, bias=True)
          (fc_k): Linear(in_features=256, out_features=256, bias=True)
          (fc_v): Linear(in_features=256, out_features=256, bias=True)
          (fc_o): Linear(in_features=256, out_features=256, bias=True)
          (dropout): Dropout(p=0.1, inplace=False)
        )
        (attention_layer_norm): LayerNorm((256,), eps=1e-05, elementwise_affine=True)
        (ff_layer_norm): LayerNorm((256,), eps=1e-05, elementwise_affine=True)
        (positionwise_feedforward): PositionwiseFeedforwardLayer(
          (fc_1): Linear(in_features=256, out_features=512, bias=True)
          (fc_2): Linear(in_features=512, out_features=256, bias=True)
          (dropout): Dropout(p=0.1, inplace=False)
        )
        (attention_dropout): Dropout(p=0.1, inplace=False)
        (ff_dropout): Dropout(p=0.1, inplace=False)
      )
      (2): EncoderLayer(
        (attention): MultiHeadAttentionLayer(
          (fc_q): Linear(in_features=256, out_features=256, bias=True)
          (fc_k): Linear(in_features=256, out_features=256, bias=True)
          (fc_v): Linear(in_features=256, out_features=256, bias=True)
          (fc_o): Linear(in_features=256, out_features=256, bias=True)
          (dropout): Dropout(p=0.1, inplace=False)
        )
        (attention_layer_norm): LayerNorm((256,), eps=1e-05, elementwise_affine=True)
        (ff_layer_norm): LayerNorm((256,), eps=1e-05, elementwise_affine=True)
        (positionwise_feedforward): PositionwiseFeedforwardLayer(
          (fc_1): Linear(in_features=256, out_features=512, bias=True)
          (fc_2): Linear(in_features=512, out_features=256, bias=True)
          (dropout): Dropout(p=0.1, inplace=False)
        )
        (attention_dropout): Dropout(p=0.1, inplace=False)
        (ff_dropout): Dropout(p=0.1, inplace=False)
      )
    )
  )
  (decoder): Decoder(
    (word_embeddings): WordEmbeddings(33222, 256)
    (pe): PositionEncoder(
      (dropout): Dropout(p=0.1, inplace=False)
    )
    (layers): ModuleList(
      (0): DecoderLayer(
        (self_attention): MultiHeadAttentionLayer(
          (fc_q): Linear(in_features=256, out_features=256, bias=True)
          (fc_k): Linear(in_features=256, out_features=256, bias=True)
          (fc_v): Linear(in_features=256, out_features=256, bias=True)
          (fc_o): Linear(in_features=256, out_features=256, bias=True)
          (dropout): Dropout(p=0.1, inplace=False)
        )
        (attention): MultiHeadAttentionLayer(
          (fc_q): Linear(in_features=256, out_features=256, bias=True)
          (fc_k): Linear(in_features=256, out_features=256, bias=True)
          (fc_v): Linear(in_features=256, out_features=256, bias=True)
          (fc_o): Linear(in_features=256, out_features=256, bias=True)
          (dropout): Dropout(p=0.1, inplace=False)
        )
        (positionwise_feedforward): PositionwiseFeedforwardLayer(
          (fc_1): Linear(in_features=256, out_features=512, bias=True)
          (fc_2): Linear(in_features=512, out_features=256, bias=True)
          (dropout): Dropout(p=0.1, inplace=False)
        )
        (self_attention_layer_norm): LayerNorm((256,), eps=1e-05, elementwise_affine=True)
        (attention_layer_norm): LayerNorm((256,), eps=1e-05, elementwise_affine=True)
        (ff_layer_norm): LayerNorm((256,), eps=1e-05, elementwise_affine=True)
        (self_attention_dropout): Dropout(p=0.1, inplace=False)
        (attention_dropout): Dropout(p=0.1, inplace=False)
        (ff_dropout): Dropout(p=0.1, inplace=False)
      )
      (1): DecoderLayer(
        (self_attention): MultiHeadAttentionLayer(
          (fc_q): Linear(in_features=256, out_features=256, bias=True)
          (fc_k): Linear(in_features=256, out_features=256, bias=True)
          (fc_v): Linear(in_features=256, out_features=256, bias=True)
          (fc_o): Linear(in_features=256, out_features=256, bias=True)
          (dropout): Dropout(p=0.1, inplace=False)
        )
        (attention): MultiHeadAttentionLayer(
          (fc_q): Linear(in_features=256, out_features=256, bias=True)
          (fc_k): Linear(in_features=256, out_features=256, bias=True)
          (fc_v): Linear(in_features=256, out_features=256, bias=True)
          (fc_o): Linear(in_features=256, out_features=256, bias=True)
          (dropout): Dropout(p=0.1, inplace=False)
        )
        (positionwise_feedforward): PositionwiseFeedforwardLayer(
          (fc_1): Linear(in_features=256, out_features=512, bias=True)
          (fc_2): Linear(in_features=512, out_features=256, bias=True)
          (dropout): Dropout(p=0.1, inplace=False)
        )
        (self_attention_layer_norm): LayerNorm((256,), eps=1e-05, elementwise_affine=True)
        (attention_layer_norm): LayerNorm((256,), eps=1e-05, elementwise_affine=True)
        (ff_layer_norm): LayerNorm((256,), eps=1e-05, elementwise_affine=True)
        (self_attention_dropout): Dropout(p=0.1, inplace=False)
        (attention_dropout): Dropout(p=0.1, inplace=False)
        (ff_dropout): Dropout(p=0.1, inplace=False)
      )
      (2): DecoderLayer(
        (self_attention): MultiHeadAttentionLayer(
          (fc_q): Linear(in_features=256, out_features=256, bias=True)
          (fc_k): Linear(in_features=256, out_features=256, bias=True)
          (fc_v): Linear(in_features=256, out_features=256, bias=True)
          (fc_o): Linear(in_features=256, out_features=256, bias=True)
          (dropout): Dropout(p=0.1, inplace=False)
        )
        (attention): MultiHeadAttentionLayer(
          (fc_q): Linear(in_features=256, out_features=256, bias=True)
          (fc_k): Linear(in_features=256, out_features=256, bias=True)
          (fc_v): Linear(in_features=256, out_features=256, bias=True)
          (fc_o): Linear(in_features=256, out_features=256, bias=True)
          (dropout): Dropout(p=0.1, inplace=False)
        )
        (positionwise_feedforward): PositionwiseFeedforwardLayer(
          (fc_1): Linear(in_features=256, out_features=512, bias=True)
          (fc_2): Linear(in_features=512, out_features=256, bias=True)
          (dropout): Dropout(p=0.1, inplace=False)
        )
        (self_attention_layer_norm): LayerNorm((256,), eps=1e-05, elementwise_affine=True)
        (attention_layer_norm): LayerNorm((256,), eps=1e-05, elementwise_affine=True)
        (ff_layer_norm): LayerNorm((256,), eps=1e-05, elementwise_affine=True)
        (self_attention_dropout): Dropout(p=0.1, inplace=False)
        (attention_dropout): Dropout(p=0.1, inplace=False)
        (ff_dropout): Dropout(p=0.1, inplace=False)
      )
    )
  )
  (fc): Linear(in_features=256, out_features=33222, bias=True)
)
Trainable parameters: 31670214
2021-03-14 12:16:34,263 [INFO]: Train Epoch: 1, 1/5292 (0%), Loss: 9.918913
2021-03-14 12:16:34,315 [INFO]: Train Epoch: 1, 2/5292 (0%), Loss: 9.479442
2021-03-14 12:16:34,371 [INFO]: Train Epoch: 1, 3/5292 (0%), Loss: 9.321543
2021-03-14 12:16:34,429 [INFO]: Train Epoch: 1, 4/5292 (0%), Loss: 9.078693
2021-03-14 12:16:34,480 [INFO]: Train Epoch: 1, 5/5292 (0%), Loss: 8.875401
…
