2022-09-06 11:07:30,018 [INFO]: Transformer(
  (encoder): Encoder(
    (word_embeddings): WordEmbeddings(41694, 256)
    (pe): PositionEmbeddings(200, 256)
    (layers): ModuleList(
      (0): EncoderLayer(
        (attention): MultiHeadAttentionLayer(
          (fc_q): Linear(in_features=256, out_features=256, bias=True)
          (fc_k): Linear(in_features=256, out_features=256, bias=True)
          (fc_v): Linear(in_features=256, out_features=256, bias=True)
          (fc_o): Linear(in_features=256, out_features=256, bias=True)
          (dropout): Dropout(p=0.1, inplace=False)
        )
        (attention_layer_norm): LayerNorm((256,), eps=1e-05, elementwise_affine=True)
        (ff_layer_norm): LayerNorm((256,), eps=1e-05, elementwise_affine=True)
        (positionwise_feedforward): PositionwiseFeedforwardLayer(
          (fc_1): Linear(in_features=256, out_features=512, bias=True)
          (fc_2): Linear(in_features=512, out_features=256, bias=True)
          (dropout): Dropout(p=0.1, inplace=False)
        )
        (attention_dropout): Dropout(p=0.1, inplace=False)
        (ff_dropout): Dropout(p=0.1, inplace=False)
      )
      (1): EncoderLayer(
        (attention): MultiHeadAttentionLayer(
          (fc_q): Linear(in_features=256, out_features=256, bias=True)
          (fc_k): Linear(in_features=256, out_features=256, bias=True)
          (fc_v): Linear(in_features=256, out_features=256, bias=True)
          (fc_o): Linear(in_features=256, out_features=256, bias=True)
          (dropout): Dropout(p=0.1, inplace=False)
        )
        (attention_layer_norm): LayerNorm((256,), eps=1e-05, elementwise_affine=True)
        (ff_layer_norm): LayerNorm((256,), eps=1e-05, elementwise_affine=True)
        (positionwise_feedforward): PositionwiseFeedforwardLayer(
          (fc_1): Linear(in_features=256, out_features=512, bias=True)
          (fc_2): Linear(in_features=512, out_features=256, bias=True)
          (dropout): Dropout(p=0.1, inplace=False)
        )
        (attention_dropout): Dropout(p=0.1, inplace=False)
        (ff_dropout): Dropout(p=0.1, inplace=False)
      )
      (2): EncoderLayer(
        (attention): MultiHeadAttentionLayer(
          (fc_q): Linear(in_features=256, out_features=256, bias=True)
          (fc_k): Linear(in_features=256, out_features=256, bias=True)
          (fc_v): Linear(in_features=256, out_features=256, bias=True)
          (fc_o): Linear(in_features=256, out_features=256, bias=True)
          (dropout): Dropout(p=0.1, inplace=False)
        )
        (attention_layer_norm): LayerNorm((256,), eps=1e-05, elementwise_affine=True)
        (ff_layer_norm): LayerNorm((256,), eps=1e-05, elementwise_affine=True)
        (positionwise_feedforward): PositionwiseFeedforwardLayer(
          (fc_1): Linear(in_features=256, out_features=512, bias=True)
          (fc_2): Linear(in_features=512, out_features=256, bias=True)
          (dropout): Dropout(p=0.1, inplace=False)
        )
        (attention_dropout): Dropout(p=0.1, inplace=False)
        (ff_dropout): Dropout(p=0.1, inplace=False)
      )
    )
    (dropout): Dropout(p=0.1, inplace=False)
  )
  (decoder): Decoder(
    (word_embeddings): WordEmbeddings(33222, 256)
    (pe): PositionEmbeddings(200, 256)
    (layers): ModuleList(
      (0): DecoderLayer(
        (self_attention): MultiHeadAttentionLayer(
          (fc_q): Linear(in_features=256, out_features=256, bias=True)
          (fc_k): Linear(in_features=256, out_features=256, bias=True)
          (fc_v): Linear(in_features=256, out_features=256, bias=True)
          (fc_o): Linear(in_features=256, out_features=256, bias=True)
          (dropout): Dropout(p=0.1, inplace=False)
        )
        (attention): MultiHeadAttentionLayer(
          (fc_q): Linear(in_features=256, out_features=256, bias=True)
          (fc_k): Linear(in_features=256, out_features=256, bias=True)
          (fc_v): Linear(in_features=256, out_features=256, bias=True)
          (fc_o): Linear(in_features=256, out_features=256, bias=True)
          (dropout): Dropout(p=0.1, inplace=False)
        )
        (positionwise_feedforward): PositionwiseFeedforwardLayer(
          (fc_1): Linear(in_features=256, out_features=512, bias=True)
          (fc_2): Linear(in_features=512, out_features=256, bias=True)
          (dropout): Dropout(p=0.1, inplace=False)
        )
        (self_attention_layer_norm): LayerNorm((256,), eps=1e-05, elementwise_affine=True)
        (attention_layer_norm): LayerNorm((256,), eps=1e-05, elementwise_affine=True)
        (ff_layer_norm): LayerNorm((256,), eps=1e-05, elementwise_affine=True)
        (self_attention_dropout): Dropout(p=0.1, inplace=False)
        (attention_dropout): Dropout(p=0.1, inplace=False)
        (ff_dropout): Dropout(p=0.1, inplace=False)
      )
      (1): DecoderLayer(
        (self_attention): MultiHeadAttentionLayer(
          (fc_q): Linear(in_features=256, out_features=256, bias=True)
          (fc_k): Linear(in_features=256, out_features=256, bias=True)
          (fc_v): Linear(in_features=256, out_features=256, bias=True)
          (fc_o): Linear(in_features=256, out_features=256, bias=True)
          (dropout): Dropout(p=0.1, inplace=False)
        )
        (attention): MultiHeadAttentionLayer(
          (fc_q): Linear(in_features=256, out_features=256, bias=True)
          (fc_k): Linear(in_features=256, out_features=256, bias=True)
          (fc_v): Linear(in_features=256, out_features=256, bias=True)
          (fc_o): Linear(in_features=256, out_features=256, bias=True)
          (dropout): Dropout(p=0.1, inplace=False)
        )
        (positionwise_feedforward): PositionwiseFeedforwardLayer(
          (fc_1): Linear(in_features=256, out_features=512, bias=True)
          (fc_2): Linear(in_features=512, out_features=256, bias=True)
          (dropout): Dropout(p=0.1, inplace=False)
        )
        (self_attention_layer_norm): LayerNorm((256,), eps=1e-05, elementwise_affine=True)
        (attention_layer_norm): LayerNorm((256,), eps=1e-05, elementwise_affine=True)
        (ff_layer_norm): LayerNorm((256,), eps=1e-05, elementwise_affine=True)
        (self_attention_dropout): Dropout(p=0.1, inplace=False)
        (attention_dropout): Dropout(p=0.1, inplace=False)
        (ff_dropout): Dropout(p=0.1, inplace=False)
      )
      (2): DecoderLayer(
        (self_attention): MultiHeadAttentionLayer(
          (fc_q): Linear(in_features=256, out_features=256, bias=True)
          (fc_k): Linear(in_features=256, out_features=256, bias=True)
          (fc_v): Linear(in_features=256, out_features=256, bias=True)
          (fc_o): Linear(in_features=256, out_features=256, bias=True)
          (dropout): Dropout(p=0.1, inplace=False)
        )
        (attention): MultiHeadAttentionLayer(
          (fc_q): Linear(in_features=256, out_features=256, bias=True)
          (fc_k): Linear(in_features=256, out_features=256, bias=True)
          (fc_v): Linear(in_features=256, out_features=256, bias=True)
          (fc_o): Linear(in_features=256, out_features=256, bias=True)
          (dropout): Dropout(p=0.1, inplace=False)
        )
        (positionwise_feedforward): PositionwiseFeedforwardLayer(
          (fc_1): Linear(in_features=256, out_features=512, bias=True)
          (fc_2): Linear(in_features=512, out_features=256, bias=True)
          (dropout): Dropout(p=0.1, inplace=False)
        )
        (self_attention_layer_norm): LayerNorm((256,), eps=1e-05, elementwise_affine=True)
        (attention_layer_norm): LayerNorm((256,), eps=1e-05, elementwise_affine=True)
        (ff_layer_norm): LayerNorm((256,), eps=1e-05, elementwise_affine=True)
        (self_attention_dropout): Dropout(p=0.1, inplace=False)
        (attention_dropout): Dropout(p=0.1, inplace=False)
        (ff_dropout): Dropout(p=0.1, inplace=False)
      )
    )
    (dropout): Dropout(p=0.1, inplace=False)
  )
  (fc): Linear(in_features=256, out_features=33222, bias=True)
)
Trainable parameters: 31772614
2022-09-06 11:07:30,740 [INFO]: Train Epoch: 1, 0/5292 (0%), Loss: 10.406149
2022-09-06 11:07:31,868 [INFO]: Train Epoch: 1, 20/5292 (0%), Loss: 10.356731
2022-09-06 11:07:33,062 [INFO]: Train Epoch: 1, 40/5292 (1%), Loss: 10.301614
2022-09-06 11:07:34,284 [INFO]: Train Epoch: 1, 60/5292 (1%), Loss: 10.259718
2022-09-06 11:07:35,494 [INFO]: Train Epoch: 1, 80/5292 (2%), Loss: 10.227610
…
2022-09-06 17:04:29,635 [INFO]: Train Epoch: 30, 5260/5292 (99%), Loss: 4.007617
2022-09-06 17:04:30,853 [INFO]: Train Epoch: 30, 5280/5292 (100%), Loss: 4.175813
2022-09-06 17:04:31,439 [INFO]: Train Epoch: 30, total Loss: 22595.717511, mean Loss: 4.269788
2022-09-06 17:04:33,867 [INFO]: Train Epoch: 30, validation loss is : 5.434
2022-09-06 17:09:30,080 [INFO]: Transformer(
  (encoder): Encoder(
    (word_embeddings): WordEmbeddings(41694, 256)
    (pe): PositionEmbeddings(200, 256)
    (layers): ModuleList(
      (0): EncoderLayer(
        (attention): MultiHeadAttentionLayer(
          (fc_q): Linear(in_features=256, out_features=256, bias=True)
          (fc_k): Linear(in_features=256, out_features=256, bias=True)
          (fc_v): Linear(in_features=256, out_features=256, bias=True)
          (fc_o): Linear(in_features=256, out_features=256, bias=True)
          (dropout): Dropout(p=0.1, inplace=False)
        )
        (attention_layer_norm): LayerNorm((256,), eps=1e-05, elementwise_affine=True)
        (ff_layer_norm): LayerNorm((256,), eps=1e-05, elementwise_affine=True)
        (positionwise_feedforward): PositionwiseFeedforwardLayer(
          (fc_1): Linear(in_features=256, out_features=512, bias=True)
          (fc_2): Linear(in_features=512, out_features=256, bias=True)
          (dropout): Dropout(p=0.1, inplace=False)
        )
        (attention_dropout): Dropout(p=0.1, inplace=False)
        (ff_dropout): Dropout(p=0.1, inplace=False)
      )
      (1): EncoderLayer(
        (attention): MultiHeadAttentionLayer(
          (fc_q): Linear(in_features=256, out_features=256, bias=True)
          (fc_k): Linear(in_features=256, out_features=256, bias=True)
          (fc_v): Linear(in_features=256, out_features=256, bias=True)
          (fc_o): Linear(in_features=256, out_features=256, bias=True)
          (dropout): Dropout(p=0.1, inplace=False)
        )
        (attention_layer_norm): LayerNorm((256,), eps=1e-05, elementwise_affine=True)
        (ff_layer_norm): LayerNorm((256,), eps=1e-05, elementwise_affine=True)
        (positionwise_feedforward): PositionwiseFeedforwardLayer(
          (fc_1): Linear(in_features=256, out_features=512, bias=True)
          (fc_2): Linear(in_features=512, out_features=256, bias=True)
          (dropout): Dropout(p=0.1, inplace=False)
        )
        (attention_dropout): Dropout(p=0.1, inplace=False)
        (ff_dropout): Dropout(p=0.1, inplace=False)
      )
      (2): EncoderLayer(
        (attention): MultiHeadAttentionLayer(
          (fc_q): Linear(in_features=256, out_features=256, bias=True)
          (fc_k): Linear(in_features=256, out_features=256, bias=True)
          (fc_v): Linear(in_features=256, out_features=256, bias=True)
          (fc_o): Linear(in_features=256, out_features=256, bias=True)
          (dropout): Dropout(p=0.1, inplace=False)
        )
        (attention_layer_norm): LayerNorm((256,), eps=1e-05, elementwise_affine=True)
        (ff_layer_norm): LayerNorm((256,), eps=1e-05, elementwise_affine=True)
        (positionwise_feedforward): PositionwiseFeedforwardLayer(
          (fc_1): Linear(in_features=256, out_features=512, bias=True)
          (fc_2): Linear(in_features=512, out_features=256, bias=True)
          (dropout): Dropout(p=0.1, inplace=False)
        )
        (attention_dropout): Dropout(p=0.1, inplace=False)
        (ff_dropout): Dropout(p=0.1, inplace=False)
      )
    )
    (dropout): Dropout(p=0.1, inplace=False)
  )
  (decoder): Decoder(
    (word_embeddings): WordEmbeddings(33222, 256)
    (pe): PositionEmbeddings(200, 256)
    (layers): ModuleList(
      (0): DecoderLayer(
        (self_attention): MultiHeadAttentionLayer(
          (fc_q): Linear(in_features=256, out_features=256, bias=True)
          (fc_k): Linear(in_features=256, out_features=256, bias=True)
          (fc_v): Linear(in_features=256, out_features=256, bias=True)
          (fc_o): Linear(in_features=256, out_features=256, bias=True)
          (dropout): Dropout(p=0.1, inplace=False)
        )
        (attention): MultiHeadAttentionLayer(
          (fc_q): Linear(in_features=256, out_features=256, bias=True)
          (fc_k): Linear(in_features=256, out_features=256, bias=True)
          (fc_v): Linear(in_features=256, out_features=256, bias=True)
          (fc_o): Linear(in_features=256, out_features=256, bias=True)
          (dropout): Dropout(p=0.1, inplace=False)
        )
        (positionwise_feedforward): PositionwiseFeedforwardLayer(
          (fc_1): Linear(in_features=256, out_features=512, bias=True)
          (fc_2): Linear(in_features=512, out_features=256, bias=True)
          (dropout): Dropout(p=0.1, inplace=False)
        )
        (self_attention_layer_norm): LayerNorm((256,), eps=1e-05, elementwise_affine=True)
        (attention_layer_norm): LayerNorm((256,), eps=1e-05, elementwise_affine=True)
        (ff_layer_norm): LayerNorm((256,), eps=1e-05, elementwise_affine=True)
        (self_attention_dropout): Dropout(p=0.1, inplace=False)
        (attention_dropout): Dropout(p=0.1, inplace=False)
        (ff_dropout): Dropout(p=0.1, inplace=False)
      )
      (1): DecoderLayer(
        (self_attention): MultiHeadAttentionLayer(
          (fc_q): Linear(in_features=256, out_features=256, bias=True)
          (fc_k): Linear(in_features=256, out_features=256, bias=True)
          (fc_v): Linear(in_features=256, out_features=256, bias=True)
          (fc_o): Linear(in_features=256, out_features=256, bias=True)
          (dropout): Dropout(p=0.1, inplace=False)
        )
        (attention): MultiHeadAttentionLayer(
          (fc_q): Linear(in_features=256, out_features=256, bias=True)
          (fc_k): Linear(in_features=256, out_features=256, bias=True)
          (fc_v): Linear(in_features=256, out_features=256, bias=True)
          (fc_o): Linear(in_features=256, out_features=256, bias=True)
          (dropout): Dropout(p=0.1, inplace=False)
        )
        (positionwise_feedforward): PositionwiseFeedforwardLayer(
          (fc_1): Linear(in_features=256, out_features=512, bias=True)
          (fc_2): Linear(in_features=512, out_features=256, bias=True)
          (dropout): Dropout(p=0.1, inplace=False)
        )
        (self_attention_layer_norm): LayerNorm((256,), eps=1e-05, elementwise_affine=True)
        (attention_layer_norm): LayerNorm((256,), eps=1e-05, elementwise_affine=True)
        (ff_layer_norm): LayerNorm((256,), eps=1e-05, elementwise_affine=True)
        (self_attention_dropout): Dropout(p=0.1, inplace=False)
        (attention_dropout): Dropout(p=0.1, inplace=False)
        (ff_dropout): Dropout(p=0.1, inplace=False)
      )
      (2): DecoderLayer(
        (self_attention): MultiHeadAttentionLayer(
          (fc_q): Linear(in_features=256, out_features=256, bias=True)
          (fc_k): Linear(in_features=256, out_features=256, bias=True)
          (fc_v): Linear(in_features=256, out_features=256, bias=True)
          (fc_o): Linear(in_features=256, out_features=256, bias=True)
          (dropout): Dropout(p=0.1, inplace=False)
        )
        (attention): MultiHeadAttentionLayer(
          (fc_q): Linear(in_features=256, out_features=256, bias=True)
          (fc_k): Linear(in_features=256, out_features=256, bias=True)
          (fc_v): Linear(in_features=256, out_features=256, bias=True)
          (fc_o): Linear(in_features=256, out_features=256, bias=True)
          (dropout): Dropout(p=0.1, inplace=False)
        )
        (positionwise_feedforward): PositionwiseFeedforwardLayer(
          (fc_1): Linear(in_features=256, out_features=512, bias=True)
          (fc_2): Linear(in_features=512, out_features=256, bias=True)
          (dropout): Dropout(p=0.1, inplace=False)
        )
        (self_attention_layer_norm): LayerNorm((256,), eps=1e-05, elementwise_affine=True)
        (attention_layer_norm): LayerNorm((256,), eps=1e-05, elementwise_affine=True)
        (ff_layer_norm): LayerNorm((256,), eps=1e-05, elementwise_affine=True)
        (self_attention_dropout): Dropout(p=0.1, inplace=False)
        (attention_dropout): Dropout(p=0.1, inplace=False)
        (ff_dropout): Dropout(p=0.1, inplace=False)
      )
    )
    (dropout): Dropout(p=0.1, inplace=False)
  )
  (fc): Linear(in_features=256, out_features=33222, bias=True)
)
Trainable parameters: 31772614
2022-09-06 17:09:30,508 [INFO]: Train Epoch: 1, 0/5292 (0%), Loss: 10.406149
2022-09-06 17:09:31,912 [INFO]: Train Epoch: 1, 20/5292 (0%), Loss: 10.405795
2022-09-06 17:09:33,258 [INFO]: Train Epoch: 1, 40/5292 (1%), Loss: 10.391838
2022-09-06 17:09:34,440 [INFO]: Train Epoch: 1, 60/5292 (1%), Loss: 10.385508
2022-09-06 17:10:01,244 [INFO]: Transformer(
  (encoder): Encoder(
    (word_embeddings): WordEmbeddings(41694, 256)
    (pe): PositionEmbeddings(200, 256)
    (layers): ModuleList(
      (0): EncoderLayer(
        (attention): MultiHeadAttentionLayer(
          (fc_q): Linear(in_features=256, out_features=256, bias=True)
          (fc_k): Linear(in_features=256, out_features=256, bias=True)
          (fc_v): Linear(in_features=256, out_features=256, bias=True)
          (fc_o): Linear(in_features=256, out_features=256, bias=True)
          (dropout): Dropout(p=0.1, inplace=False)
        )
        (attention_layer_norm): LayerNorm((256,), eps=1e-05, elementwise_affine=True)
        (ff_layer_norm): LayerNorm((256,), eps=1e-05, elementwise_affine=True)
        (positionwise_feedforward): PositionwiseFeedforwardLayer(
          (fc_1): Linear(in_features=256, out_features=512, bias=True)
          (fc_2): Linear(in_features=512, out_features=256, bias=True)
          (dropout): Dropout(p=0.1, inplace=False)
        )
        (attention_dropout): Dropout(p=0.1, inplace=False)
        (ff_dropout): Dropout(p=0.1, inplace=False)
      )
      (1): EncoderLayer(
        (attention): MultiHeadAttentionLayer(
          (fc_q): Linear(in_features=256, out_features=256, bias=True)
          (fc_k): Linear(in_features=256, out_features=256, bias=True)
          (fc_v): Linear(in_features=256, out_features=256, bias=True)
          (fc_o): Linear(in_features=256, out_features=256, bias=True)
          (dropout): Dropout(p=0.1, inplace=False)
        )
        (attention_layer_norm): LayerNorm((256,), eps=1e-05, elementwise_affine=True)
        (ff_layer_norm): LayerNorm((256,), eps=1e-05, elementwise_affine=True)
        (positionwise_feedforward): PositionwiseFeedforwardLayer(
          (fc_1): Linear(in_features=256, out_features=512, bias=True)
          (fc_2): Linear(in_features=512, out_features=256, bias=True)
          (dropout): Dropout(p=0.1, inplace=False)
        )
        (attention_dropout): Dropout(p=0.1, inplace=False)
        (ff_dropout): Dropout(p=0.1, inplace=False)
      )
      (2): EncoderLayer(
        (attention): MultiHeadAttentionLayer(
          (fc_q): Linear(in_features=256, out_features=256, bias=True)
          (fc_k): Linear(in_features=256, out_features=256, bias=True)
          (fc_v): Linear(in_features=256, out_features=256, bias=True)
          (fc_o): Linear(in_features=256, out_features=256, bias=True)
          (dropout): Dropout(p=0.1, inplace=False)
        )
        (attention_layer_norm): LayerNorm((256,), eps=1e-05, elementwise_affine=True)
        (ff_layer_norm): LayerNorm((256,), eps=1e-05, elementwise_affine=True)
        (positionwise_feedforward): PositionwiseFeedforwardLayer(
          (fc_1): Linear(in_features=256, out_features=512, bias=True)
          (fc_2): Linear(in_features=512, out_features=256, bias=True)
          (dropout): Dropout(p=0.1, inplace=False)
        )
        (attention_dropout): Dropout(p=0.1, inplace=False)
        (ff_dropout): Dropout(p=0.1, inplace=False)
      )
    )
    (dropout): Dropout(p=0.1, inplace=False)
  )
  (decoder): Decoder(
    (word_embeddings): WordEmbeddings(33222, 256)
    (pe): PositionEmbeddings(200, 256)
    (layers): ModuleList(
      (0): DecoderLayer(
        (self_attention): MultiHeadAttentionLayer(
          (fc_q): Linear(in_features=256, out_features=256, bias=True)
          (fc_k): Linear(in_features=256, out_features=256, bias=True)
          (fc_v): Linear(in_features=256, out_features=256, bias=True)
          (fc_o): Linear(in_features=256, out_features=256, bias=True)
          (dropout): Dropout(p=0.1, inplace=False)
        )
        (attention): MultiHeadAttentionLayer(
          (fc_q): Linear(in_features=256, out_features=256, bias=True)
          (fc_k): Linear(in_features=256, out_features=256, bias=True)
          (fc_v): Linear(in_features=256, out_features=256, bias=True)
          (fc_o): Linear(in_features=256, out_features=256, bias=True)
          (dropout): Dropout(p=0.1, inplace=False)
        )
        (positionwise_feedforward): PositionwiseFeedforwardLayer(
          (fc_1): Linear(in_features=256, out_features=512, bias=True)
          (fc_2): Linear(in_features=512, out_features=256, bias=True)
          (dropout): Dropout(p=0.1, inplace=False)
        )
        (self_attention_layer_norm): LayerNorm((256,), eps=1e-05, elementwise_affine=True)
        (attention_layer_norm): LayerNorm((256,), eps=1e-05, elementwise_affine=True)
        (ff_layer_norm): LayerNorm((256,), eps=1e-05, elementwise_affine=True)
        (self_attention_dropout): Dropout(p=0.1, inplace=False)
        (attention_dropout): Dropout(p=0.1, inplace=False)
        (ff_dropout): Dropout(p=0.1, inplace=False)
      )
      (1): DecoderLayer(
        (self_attention): MultiHeadAttentionLayer(
          (fc_q): Linear(in_features=256, out_features=256, bias=True)
          (fc_k): Linear(in_features=256, out_features=256, bias=True)
          (fc_v): Linear(in_features=256, out_features=256, bias=True)
          (fc_o): Linear(in_features=256, out_features=256, bias=True)
          (dropout): Dropout(p=0.1, inplace=False)
        )
        (attention): MultiHeadAttentionLayer(
          (fc_q): Linear(in_features=256, out_features=256, bias=True)
          (fc_k): Linear(in_features=256, out_features=256, bias=True)
          (fc_v): Linear(in_features=256, out_features=256, bias=True)
          (fc_o): Linear(in_features=256, out_features=256, bias=True)
          (dropout): Dropout(p=0.1, inplace=False)
        )
        (positionwise_feedforward): PositionwiseFeedforwardLayer(
          (fc_1): Linear(in_features=256, out_features=512, bias=True)
          (fc_2): Linear(in_features=512, out_features=256, bias=True)
          (dropout): Dropout(p=0.1, inplace=False)
        )
        (self_attention_layer_norm): LayerNorm((256,), eps=1e-05, elementwise_affine=True)
        (attention_layer_norm): LayerNorm((256,), eps=1e-05, elementwise_affine=True)
        (ff_layer_norm): LayerNorm((256,), eps=1e-05, elementwise_affine=True)
        (self_attention_dropout): Dropout(p=0.1, inplace=False)
        (attention_dropout): Dropout(p=0.1, inplace=False)
        (ff_dropout): Dropout(p=0.1, inplace=False)
      )
      (2): DecoderLayer(
        (self_attention): MultiHeadAttentionLayer(
          (fc_q): Linear(in_features=256, out_features=256, bias=True)
          (fc_k): Linear(in_features=256, out_features=256, bias=True)
          (fc_v): Linear(in_features=256, out_features=256, bias=True)
          (fc_o): Linear(in_features=256, out_features=256, bias=True)
          (dropout): Dropout(p=0.1, inplace=False)
        )
        (attention): MultiHeadAttentionLayer(
          (fc_q): Linear(in_features=256, out_features=256, bias=True)
          (fc_k): Linear(in_features=256, out_features=256, bias=True)
          (fc_v): Linear(in_features=256, out_features=256, bias=True)
          (fc_o): Linear(in_features=256, out_features=256, bias=True)
          (dropout): Dropout(p=0.1, inplace=False)
        )
        (positionwise_feedforward): PositionwiseFeedforwardLayer(
          (fc_1): Linear(in_features=256, out_features=512, bias=True)
          (fc_2): Linear(in_features=512, out_features=256, bias=True)
          (dropout): Dropout(p=0.1, inplace=False)
        )
        (self_attention_layer_norm): LayerNorm((256,), eps=1e-05, elementwise_affine=True)
        (attention_layer_norm): LayerNorm((256,), eps=1e-05, elementwise_affine=True)
        (ff_layer_norm): LayerNorm((256,), eps=1e-05, elementwise_affine=True)
        (self_attention_dropout): Dropout(p=0.1, inplace=False)
        (attention_dropout): Dropout(p=0.1, inplace=False)
        (ff_dropout): Dropout(p=0.1, inplace=False)
      )
    )
    (dropout): Dropout(p=0.1, inplace=False)
  )
  (fc): Linear(in_features=256, out_features=33222, bias=True)
)
Trainable parameters: 31772614
2022-09-06 17:10:01,931 [INFO]: Train Epoch: 32, 0/5292 (0%), Loss: 4.389520
2022-09-06 17:10:03,333 [INFO]: Train Epoch: 32, 20/5292 (0%), Loss: 4.252959
2022-09-06 17:10:04,598 [INFO]: Train Epoch: 32, 40/5292 (1%), Loss: 4.167634
2022-09-06 17:10:05,901 [INFO]: Train Epoch: 32, 60/5292 (1%), Loss: 4.038912
2022-09-06 17:10:07,103 [INFO]: Train Epoch: 32, 80/5292 (2%), Loss: 4.102900
…
